…
2024-05-29 10:13:51.991881: W tensorflow/compiler/tf2tensorrt/utils/py_utils.cc:38] TF-TRT Warning: Could not find TensorRT
2024-05-29 10:14:00.583703: E external/local_xla/xla/stream_executor/cuda/cuda_driver.cc:282] failed call to cuInit: CUDA_ERROR_NO_DEVICE: no CUDA-capable device is detected
Running train
Model: "functional_1"
┏━━━━━━━━━━━━━━━━━━━━━━━━━━━━━━━━━┳━━━━━━━━━━━━━━━━━━━━━━━━┳━━━━━━━━━━━━━━━┓
┃ Layer (type)                    ┃ Output Shape           ┃       Param # ┃
┡━━━━━━━━━━━━━━━━━━━━━━━━━━━━━━━━━╇━━━━━━━━━━━━━━━━━━━━━━━━╇━━━━━━━━━━━━━━━┩
│ input_layer (InputLayer)        │ (None, 32, 4)          │             0 │
├─────────────────────────────────┼────────────────────────┼───────────────┤
│ inner_product (InnerProduct)    │ (None, 32, 32, 1)      │             0 │
├─────────────────────────────────┼────────────────────────┼───────────────┤
│ log_layer (LogLayer)            │ (None, 32, 32, 1)      │             1 │
├─────────────────────────────────┼────────────────────────┼───────────────┤
│ lineq2v2 (Lineq2v2)             │ (None, 32, 32, 7)      │             0 │
├─────────────────────────────────┼────────────────────────┼───────────────┤
│ dense (Dense)                   │ (None, 32, 32, 2)      │            16 │
├─────────────────────────────────┼────────────────────────┼───────────────┤
│ lineq2v2_1 (Lineq2v2)           │ (None, 32, 32, 31)     │             0 │
├─────────────────────────────────┼────────────────────────┼───────────────┤
│ dense_1 (Dense)                 │ (None, 32, 32, 2)      │            64 │
├─────────────────────────────────┼────────────────────────┼───────────────┤
│ lineq2v0 (Lineq2v0)             │ (None, 4)              │             0 │
├─────────────────────────────────┼────────────────────────┼───────────────┤
│ dense_2 (Dense)                 │ (None, 5)              │            25 │
└─────────────────────────────────┴────────────────────────┴───────────────┘
 Total params: 106 (424.00 B)
 Trainable params: 106 (424.00 B)
 Non-trainable params: 0 (0.00 B)
0epoch [00:00, ?epoch/s]  0%|          | 0/140 [00:00<?, ?epoch/s]/cluster/home/okulseng/.local/lib64/python3.11/site-packages/keras/src/trainers/data_adapters/py_dataset_adapter.py:120: UserWarning: Your `PyDataset` class should call `super().__init__(**kwargs)` in its constructor. `**kwargs` can include `workers`, `use_multiprocessing`, `max_queue_size`. Do not pass these arguments to `fit()`, as they will be ignored.
…
